…
          "base_uri": "https://localhost:8080/"
        },
        "id": "PIenAA57WOxB",
        "outputId": "ada603f5-b6b9-4da4-f15e-d9c37a34609c"
      },
      "execution_count": 10,
      "outputs": [
        {
          "output_type": "stream",
          "name": "stdout",
          "text": [
            "Model: \"sequential\"\n",
            "_________________________________________________________________\n",
            " Layer (type)                Output Shape              Param #   \n",
            "=================================================================\n",
            " conv2d (Conv2D)             (None, 8, 4, 8)           40        \n",
            "                                                                 \n",
            " batch_normalization (BatchN  (None, 8, 4, 8)          32        \n",
            " ormalization)                                                   \n",
            "                                                                 \n",
            " conv2d_1 (Conv2D)           (None, 8, 4, 16)          528       \n",
            "                                                                 \n",
            " batch_normalization_1 (Batc  (None, 8, 4, 16)         64        \n",
            " hNormalization)                                                 \n",
            "                                                                 \n",
            " conv2d_2 (Conv2D)           (None, 8, 4, 32)          4640      \n",
            "                                                                 \n",
            " batch_normalization_2 (Batc  (None, 8, 4, 32)         128       \n",
            " hNormalization)                                                 \n",
            "                                                                 \n",
            " conv2d_3 (Conv2D)           (None, 8, 4, 32)          9248      \n",
            "                                                                 \n",
            " batch_normalization_3 (Batc  (None, 8, 4, 32)         128       \n",
            " hNormalization)                                                 \n",
            "                                                                 \n",
            " global_average_pooling2d (G  (None, 32)               0         \n",
            " lobalAveragePooling2D)                                          \n",
            "                                                                 \n",
            " flatten (Flatten)           (None, 32)                0         \n",
            "                                                                 \n",
            " dense (Dense)               (None, 32)                1056      \n",
            "                                                                 \n",
            " batch_normalization_4 (Batc  (None, 32)               128       \n",
            " hNormalization)                                                 \n",
            "                                                                 \n",
            " dense_1 (Dense)             (None, 16)                528       \n",
            "                                                                 \n",
            " batch_normalization_5 (Batc  (None, 16)               64        \n",
            " hNormalization)                                                 \n",
            "                                                                 \n",
            " dense_2 (Dense)             (None, 8)                 136       \n",
            "                                                                 \n",
            " batch_normalization_6 (Batc  (None, 8)                32        \n",
            " hNormalization)                                                 \n",
            "                                                                 \n",
            " dense_3 (Dense)             (None, 4)                 36        \n",
            "                                                                 \n",
            "=================================================================\n",
            "Total params: 16,788\n",
            "Trainable params: 16,500\n",
            "Non-trainable params: 288\n",
            "_________________________________________________________________\n"
          ]
        }
…
